Implementation/Other/ML/Models/model5.tflite (tflite, 1948 bytes, 4 tensors)

dense_9/bias f4 [5]
00000000: a1ae f5bf cc3d e6c0 255f dc40 46cc 0cc0
00000010: c6e1 eabf
-1.9193918 -7.1950436 6.8866143 -2.1999679 -1.835015

dense_8/bias f4 [8]
00000000: 8e5a 1c3f 1da3 7740 e3f0 c93f 1058 ff40
00000010: 9a15 a4c0 a8d1 4940 4ec5 6f3e 2ea4 2ac1
0.61075675 3.8693306 1.5776638 7.9795 -5.127637 3.1534214 0.2341511 -10.665083

std.constant f4 [8, 11]
00000000: 3086 903e 9875 09be d23c eb3d 0279 f5ba
00000010: 507b 58bf 83e6 873f aea6 3d3e 0948 4d3e
00000020: 138a 0cc1 4c04 83bd fd5c d6be 1cd9 72bb
00000030: 9fdf c53d 3555 173f fb9c 5e3e 309d 463f
00000040: a933 1abe 0800 803c c1ff ed3b 3e2b 2240
00000050: d48d 94be 205d c740 2b24 b63e 9d80 b1be
00000060: 26b6 22bf eb1b 83be 3313 e23e c308 a5be
00000070: 0ed6 1abf 4f7b eabe b069 c03f 4776 c4be
00000080: 3405 3640 7b72 a4be 4d15 f6be 5dde f9bd
00000090: 4c7b a5bd 7430 ae3d 4dae c33c ef45 593f
000000a0: a099 26be 9990 86c1 c2e3 d23c bb94 443f
000000b0: 259d bdbd 24c5 ebbd a419 7dc0 9448 c8be
000000c0: 715d e7bf 3f64 bb3f 5cb0 153e 100e 22bf
000000d0: 1dc7 e041 a928 db3c 1318 1f40 89d8 d73d
000000e0: 6313 3f3d acb8 9f3e 3045 503c 97a3 88c1
000000f0: cf13 e13e 3ee6 8b3e 2c92 033e 43a9 1441
00000100: bc9d 8abd 8844 e43f a0cd 1a3f 7353 b1bd
00000110: 1762 c93d 5376 57bc 0c86 313f 6f6f 293f
00000120: 9018 403c 2f37 b43d 7632 bbbe 0030 2abf
00000130: 3821 c13d 42c4 77bc cb9c 9a3c 4952 fb3d
00000140: a5bd 323d 5dd9 97bc fa0c 353d b6ec 383f
00000150: 63d5 2d3d 54e0 7a41 3fd4 3f3d 6ecf ba3e
0.28227377 -0.13423765 0.1148621 -0.001872808 -0.8456316 1.0617222 0.18520615 0.2004701
-8.78371 -0.06397304 -0.4186782 -0.0037055677 0.09661793 0.5911439 0.21739571 0.775836
-0.1505877 0.015625015 0.0072631543 2.5338893 -0.29014456 6.230118 0.3557447 -0.34668437
-0.63559186 -0.25607237 0.44155273 -0.32233247 -0.6048287 -0.45797202 1.5032253 -0.38371488
2.8440676 -0.32118592 -0.48063126 -0.122006156 -0.08080158 0.085053355 0.023886824 0.84872335
-0.16269541 -16.820604 0.025743369 0.76789445 -0.092584886 -0.11512211 -3.95469 -0.39117873
-1.8075391 1.4639968 0.14618057 -0.6330271 28.097223 0.026752787 2.4858444 0.10539348
0.046649348 0.3119558 0.012711808 -17.079878 0.43960425 0.27324098 0.12848729 9.291324
-0.06768367 1.7833414 0.6047001 -0.08658495 0.09833162 -0.013150769 0.69345164 0.6618566
0.011724606 0.08799588 -0.36561936 -0.6647949 0.09430164 -0.015122475 0.018873593 0.12271554
0.04363789 -0.018536264 0.04420183 0.7223619 0.04243983 15.679768 0.046833273 0.3648638

std.constant1 f4 [5, 8]
00000000: 1153 48bf 9cf5 21bf ecda 773f a1a8 9abf
00000010: 5ce2 2dbf dffb 33be 71a5 aabe 1168 6ac0
00000020: 4898 073f 47d4 cabe 225e c7bf 84b1 98be
00000030: 6da5 83be 57ac 663e c415 b53e 8782 123e
00000040: 84f9 e43e d174 fabe 3751 03c0 eff3 3abe
00000050: 320c 4abe 2fc0 cb3e 5d00 e3be e299 cabc
00000060: 263d 1ebe c927 21bf 0860 6fbf 22e3 99bf
00000070: b4ac 0cbf dac4 74be 4cf3 1fbf 4c59 60c0
00000080: 4922 21c0 1158 2ac1 30d9 ebbe 20f7 81bf
00000090: 65f3 933e 8105 d5c0 25b1 ecbe 5d6e 4bbc
-0.7825175 -0.63265395 0.96818423 -1.2082711 -0.6792352 -0.1757655 -0.33329347 -3.6626017
0.5296674 -0.3961508 -1.5575602 -0.29822934 -0.25712147 0.2252668 0.35368168 0.14307605
0.44721615 -0.4891725 -2.051832 -0.18257116 -0.19731215 0.39795062 -0.44336215 -0.02473158
-0.15453014 -0.6295133 -0.9350591 -1.202244 -0.54951024 -0.23903218 -0.62480617 -3.5054502
-2.5177176 -10.646501 -0.46064138 -1.0153542 0.28896633 -6.656922 -0.462289 -0.012416449
