Implementation/Other/ML/Models/model4.tflite (tflite, 1948 bytes, 4 tensors)

dense_7/bias f4 [5]
-2.2387486 -3.9707658 3.6929495 -9.730644 -2.5056303
00000000: a847 0fc0 0721 7ec0 4959 6c40 b8b0 1bc1
00000010: 3f5c 20c0

dense_6/bias f4 [8]
1.2338041 -0.047463935 0.0 1.1257862 -2.965556 1.691241 -0.4731872 3.055386
00000000: 4bed 9d3f 8b69 42bd 0000 0000 c319 903f
00000010: abcb 3dc0 967a d83f 9845 f2be 728b 4340

std.constant f4 [8, 11]
-0.019278012 -0.06627148 -0.1403692 0.16726181 0.4453934 -0.14020129 -0.41977173 -0.27825126
-4.237366 0.021370975 0.13596211 0.14544469 -0.36943007 -0.4146703 -0.15137759 -0.062318623
0.056863546 -0.46245104 -0.040311158 -0.6000563 -0.37872303 -0.002113731 -0.19584933 -0.16380715
0.094304025 -0.47530934 -0.28037578 -0.0735701 0.18342364 -0.23399845 0.14217818 -0.22167164
-0.4513235 -0.016807357 0.32219654 0.6911903 0.15159668 0.79795337 -0.021274786 0.24190828
-0.034841392 -2.7067306 -0.3861334 1.2987137 -0.02195777 -0.021420004 0.12573391 0.05853368
0.42774233 -0.019052211 0.11684435 0.05071779 -4.0581203 0.056141593 -2.0863502 -2.8468068
-0.40391564 1.3806916 0.6135396 -4.1770716 -1.5577983 0.1970142 0.118561566 0.38561022
-0.042673085 1.8446865 -0.8423438 -0.19412164 0.18040209 0.022380315 -0.5357357 -9.886653
-0.32013327 -19.66784 2.2571084 0.17137268 0.9691755 -1.0273554 -0.19663909 -0.3242646
-0.7198634 0.2336854 -0.022116633 0.14725143 0.16947304 -0.62750316 0.01472902 2.4133005
00000000: ecec 9dbc 57b9 87bd f2bc 0fbe ae46 2b3e
00000010: 9b0a e43e ed90 0fbe 52ec d6be f376 8ebe
00000020: 8198 87c0 2f12 af3c a739 0b3e 74ef 143e
00000030: f025 bdbe aa4f d4be ba02 1bbe d041 7fbd
00000040: c0e9 683d 62c6 ecbe 501d 25bd 4a9d 19bf
00000050: fce7 c1be 8686 0abb ba8c 48be 10bd 27be
00000060: 7822 c13d bf5b f3be 6a8d 8fbe ecab 96bd
00000070: 68d3 3b3e 4a9d 6fbe 2897 113e e4fd 62be
00000080: e013 e7be 95af 89bc f2f6 a43e d9f1 303f
00000090: 293c 1b3e ac46 4c3f 7648 aebc ceb6 773e
000000a0: d9b5 0ebd 133b 2dc0 47b3 c5be 403c a63f
000000b0: c8e0 b3bc 0179 afbc 64c0 003e 03c1 6f3d
000000c0: 0b01 db3e 6213 9cbc 174c ef3d 75bd 4f3d
000000d0: 1fdc 81c0 baf4 653d c386 05c0 1532 36c0
000000e0: 08ce cebe 81ba b03f ee10 1d3f 92aa 85c0
000000f0: ef65 c7bf 17be 493e 68d0 f23d b46e c53e
00000100: f9c9 2ebd b01e ec3f d8a3 57bf d3c7 46be
00000110: 53bb 383e ec56 b73c fa25 09bf bb2f 1ec1
00000120: 82e8 a3be bc57 9dc1 7774 1040 527c 2f3e
00000130: e31b 783f 6280 83bf c25b 49be 0206 a6be
00000140: f848 38bf 3a4b 6f3e f12d b5bc 14c9 163e
00000150: 578a 2d3e 0ca4 20bf fd51 713c 8473 1a40

std.constant1 f4 [5, 8]
0.3044201 -0.48871857 -0.0035234094 -0.4039215 -4.9575453 0.2323013 -1.231638 0.86384875
0.13611408 -0.3100936 -0.015207231 -0.26221436 0.3764871 -0.09827937 -0.27938795 -0.34623155
0.28566688 -0.010285554 -8.761883e-06 -0.41836056 0.24029383 -0.061346468 -0.20045662 -0.15381753
-1.3255736 0.55731696 -0.16308141 -1.9229114 -2.2340493 -0.4087667 -0.52975273 0.2588279
-2.7671804 0.28282958 -0.01979059 -16.269682 0.23613164 -2.638669 -0.010145843 -0.3290617
00000000: f4dc 9b3e 5239 fabe 00e9 66bb cdce cebe
00000010: 36a4 9ec0 64e0 6d3e 50a6 9dbf 3125 5d3f
00000020: 7d61 0b3e 97c4 9ebe c027 79bc f640 86be
00000030: ebc2 c03e b246 c9bd f00b 8fbe 4345 b1be
00000040: ee42 923e be84 28bc 0000 13b7 5b33 d6be
00000050: 960f 763e 6f46 7bbd 8044 4dbe 5882 1dbe
00000060: 65ac a9bf 53ac 0e3f d0fe 26be f621 f6bf
00000070: aafa 0ec0 de49 d1be e09d 07bf 1785 843e
00000080: 7c19 31c0 0acf 903e e01f a2bc 4f28 82c1
00000090: 7ecc 713e f4df 28c0 c03a 26bc c67a a8be
