Implementation/Simulation/models/model6.tflite (tflite, 1956 bytes, 4 tensors)

dense_11/bias f4 [5]
-0.55245006 -1.6611654 3.124184 -7.095404 -7.8010244
00000000: 5e6d 0dbf 11a1 d4bf a1f2 4740 8d0d e3c0
00000010: fea1 f9c0

dense_10/bias f4 [8]
15.482336 3.3892002 6.287301 -12.788324 7.14699 -0.26591104 -3.1111302 3.8826997
00000000: a6b7 7741 a8e8 5840 9231 c940 fa9c 4cc1
00000010: 24b4 e440 7e25 88be c21c 47c0 277e 7840

std.constant f4 [8, 11]
-0.08983513 0.17019655 -0.1364433 -0.20147397 -0.26252306 -0.14920822 -0.301081 -0.09649768
5.198884 0.04040764 5.5026517 0.19571261 0.15067397 0.07071291 0.7516485 0.42641988
-0.21543075 -1.1376936 -0.97174495 -5.689717 -0.032059837 0.25841558 -0.26037928 -0.25717133
0.12548928 -0.066050716 -0.0063826805 -0.7473655 -0.12418078 -0.09858151 -10.527049 0.022910342
-0.46538296 -0.105083674 0.20996244 0.0636862 0.07632166 -0.05461565 -0.16828169 -0.21231002
-0.20181175 15.718988 0.1245848 -2.3236146 -0.056203395 0.0033123838 0.14422122 0.22129022
0.5615423 0.027270338 -0.09941174 -0.14108646 10.581931 -0.25237006 8.481304 -0.7698819
-0.47486737 0.22092964 0.20977549 -0.5491289 0.11259946 -0.35669565 -0.25165388 -0.13633126
-0.4015363 -0.44874078 0.1282649 0.17567715 0.18915229 0.08074764 -0.20675808 0.38383982
0.111867376 0.3016473 -4.0487623 -0.017717058 -0.9957961 -0.046684865 -0.0056829317 0.2387764
0.17765187 -28.266365 0.22726026 -0.01975344 -0.00997323 13.261543 -0.005563732 0.50148654
00000000: 7bfb b7bd 0148 2e3e cbb7 0bbe 314f 4ebe
00000010: 6c69 86be 0aca 18be 4a27 9abe 93a0 c5bd
00000020: 425d a640 7b82 253d b915 b040 e368 483e
00000030: 474a 1a3e eed1 903d 096c 403f b553 da3e
00000040: e199 5cbe f29f 91bf 47c4 78bf 2912 b6c0
00000050: 2d51 03bd 0c4f 843e 6f50 85be f6ab 83be
00000060: 4380 003e 9945 87bd ce25 d1bb 5853 3fbf
00000070: 7e52 febd 1ae5 c9bd cb6e 28c1 78ae bb3c
00000080: ad46 eebe 1c36 d7bd 6500 573e e96d 823d
00000090: 884e 9c3d a9b4 5fbd 0952 2cbe cc67 59be
000000a0: bda7 4ebe fa80 7b41 5126 ff3d 1ab6 14c0
000000b0: 8835 66bd 9414 593b baae 133e e799 623e
000000c0: 3cc1 0f3f 0b66 df3c 6298 cbbd f878 10be
000000d0: 974f 2941 a636 81be 6cb3 0741 fb16 45bf
000000e0: d121 f3be 613b 623e 63cf 563e b693 0cbf
000000f0: 8c9a e63d d0a0 b6be c7d8 80be 6c9a 0bbe
00000100: 2a96 cdbe 5ac1 e5be e057 033e b6e4 333e
00000110: 23b1 413e 055f a53d 64b8 53be a786 c43e
00000120: b91a e53d 8471 9a3e 768f 81c0 5d23 91bc
00000130: 7eec 7ebf a138 3fbd e337 babb cd81 743e
00000140: 5fea 353e 8421 e2c1 eab6 683e f7d1 a1bc
00000150: c266 23bc 482f 5441 f74f b6bb 6c61 003f

std.constant1 f4 [5, 8]
-0.22287223 0.36370644 -5.7685833 -6.724672 0.51254433 0.44185707 -4.3228855 3.3518872
-0.37840447 0.061130255 -0.52235246 -0.3385247 0.66729045 -0.15693386 0.5201675 -0.5436956
-0.24008575 0.11390407 -0.3252359 -0.424603 0.51822954 0.0062240935 0.46364203 -0.3876957
-2.3922899 -0.5504631 -1.8414733 -3.148253 0.21622637 0.08506042 -1.6996288 -0.72195834
-0.1373322 -2.7814379 -1.9019521 -0.36574787 -0.21712653 -0.38021955 -0.67868215 -0.7834852
00000000: 9e38 64be bb37 ba3e 3c98 b8c0 8330 d7c0
00000010: 1b36 033f 173b e23e 1455 8ac0 5285 5640
00000020: 3bbe c1be b863 7a3d e4b8 05bf 1c53 adbe
00000030: 8cd3 2a3f 45b3 20be b329 053f a32f 0bbf
00000040: 0ad9 75be 8946 e93d 5285 a6be 9065 d9be
00000050: b1aa 043f 7bf3 cb3b 7d62 ed3e 0d80 c6be
00000060: 471b 19c0 26eb 0cbf 66b5 ebbf fa7c 49c0
00000070: 726a 5d3e 2834 ae3d 708d d9bf 43d2 38bf
00000080: d0a0 0cbe 1403 32c0 2b73 f3bf 4e43 bbbe
00000090: 6b56 5ebe 23ac c2be 1dbe 2dbf 7c92 48bf
