Implementation/Simulation/models/model2.tflite (tflite, 1948 bytes, 4 tensors)

dense_3/bias f4 [5]
000000 43 1b fa c0 ca 4f 42 c0 03 cc 3b 40 c6 ed 16 c1
       -7.815828 -3.03612 2.934327 -9.43305
000010 bc d8 33 c0
       -2.8101034

dense_2/bias f4 [8]
000000 38 33 ac c0 88 58 0f 3f f3 e4 76 bc e4 85 9c 40
       -5.3812523 0.5599446 -0.015069234 4.891344
000010 2c 97 71 40 5b 88 e5 3e 50 1b c4 3f 6a 04 3c 3f
       3.7748518 0.44830593 1.5320835 0.73444235

std.constant f4 [8, 11]
000000 4c 01 00 3e 32 db 46 3d 21 c2 f3 bc 0c 9f 89 3e
       0.12500495 0.048548885 -0.029755654 0.26879156
000010 12 55 6f bd 8e 05 5c 3c 54 4f 38 bd 32 c9 f0 bc
       -0.05843074 0.013429059 -0.04499753 -0.029392812
000020 72 40 2a c0 0b 22 80 3d e9 f1 55 c0 0c b4 0b bf
       -2.6601834 0.06256493 -3.34289 -0.54571605
000030 9b b2 b8 3e 8a 71 3e be 82 7c bf 3d 2d a5 ad be
       0.36073765 -0.18597999 0.0934992 -0.33915082
000040 82 e3 cd bb f5 ce d2 be 6a d0 22 3b a6 27 ee 3d
       -0.0062832246 -0.4117352 0.0024843463 0.11628656
000050 b3 75 d8 be fc 09 9b 3f c3 d5 7a be 74 18 08 3f
       -0.42277297 1.2112422 -0.24495606 0.5316231
000060 12 7c 0b bf 9d 4f c8 be 55 4d ac 3d fe f4 b3 be
       -0.5448619 -0.3912324 0.084131874 -0.35147852
000070 0c 7f 01 bf 24 36 6d bd c5 3d 2f be a4 f4 6e be
       -0.50584483 -0.05791296 -0.17113407 -0.2333551
000080 09 a3 b3 be 3a 5b 74 3d 98 d8 b8 bd d4 cf 0f 3e
       -0.35085323 0.059657313 -0.09025687 0.14044124
000090 00 f9 19 3e 2f 5b 29 3f 5d 0b 93 3d 9f 73 7f 3d
       0.15036392 0.6615476 0.07179902 0.062366124
0000a0 b6 9c 10 3c 2a 6c 4f 40 85 53 a1 be 0b e0 b0 40
       0.008826425 3.2409768 -0.31509033 5.527349
0000b0 29 68 b1 3d f5 d7 da 3d f1 dc 44 be cc 73 53 be
       0.08662445 0.10685722 -0.19224907 -0.20649642
0000c0 b1 b8 9c 3c 9e e5 cb 3b c0 c1 e3 be a5 02 a8 3d
       0.019131036 0.006222441 -0.44483757 0.082036294
0000d0 e6 93 28 c0 63 36 c9 3c bb 19 fb 3f 9b 84 98 3d
       -2.634027 0.024562066 1.9617227 0.074471675
0000e0 24 3f 83 3e 9c 92 61 be 90 3d 3e 3e 9c bd cf bc
       0.2563411 -0.22028583 0.18578172 -0.025358967
0000f0 3a 20 ea be c7 d1 53 bf f5 94 c6 c0 0c b6 e4 40
       -0.45727712 -0.8274197 -6.205683 7.1472225
000100 0e 77 f0 3d 0f fc a9 3f 4e 13 4e 3d 8a ce 27 be
       0.11741458 1.3280047 0.05031138 -0.16387382
000110 8d 3f bf bd 9e c5 05 3f 47 e8 2f be d1 46 fd bc
       -0.09338293 0.52254665 -0.1717845 -0.030917557
000120 ea 10 5b be e8 35 bf bd 69 f5 11 c0 0f 75 74 ba
       -0.21393171 -0.09336454 -2.2806036 -0.00093253044
000130 b6 a6 0f 3f 8e f7 99 bd 0b 0d 0e 3e 5d fb b9 3d
       0.56113756 -0.075179204 0.13872163 0.09081147
000140 55 0c 83 be 94 00 9f 3e cc f7 e7 3d 77 2b a1 3c
       -0.25595346 0.3105513 0.113265604 0.019674046
000150 b3 8d 72 3e 20 de b8 3e fc 4f 56 bd 6f 8c d0 3f
       0.23686866 0.36106968 -0.052322373 1.6292857

std.constant1 f4 [5, 8]
000000 3e 65 a9 c0 3f 50 94 40 52 3f 77 be 8c ee 7b 3e
       -5.2936087 4.6347957 -0.24145249 0.24602717
000010 0e 03 ca be 65 e1 dc be b6 d9 61 bf ac 3c ea bf
       -0.39455456 -0.43140712 -0.88222826 -1.8299766
000020 1a 2d 45 be 1f cf 9e bf a8 59 06 3f 66 2d 6c 3e
       -0.19255486 -1.2406958 0.52480555 0.23064193
000030 69 c7 88 be da 0c 01 be 0e 72 2c be ff dd 37 be
       -0.26714638 -0.12602559 -0.16840383 -0.17955779
000040 9e a4 a4 be 4a db 47 c0 9a 27 a6 be aa c2 f8 3c
       -0.32156843 -3.1227593 -0.3245209 0.03036626
000050 c3 a5 54 be e2 5b b7 bd 91 67 90 bd 05 11 63 be
       -0.20766358 -0.08953072 -0.07051004 -0.22174461
000060 90 1d 87 c0 d7 ed 0d 3f e8 d3 37 3e 97 ce ed be
       -4.2223587 0.5544104 0.1795193 -0.46446678
000070 b2 28 36 bf f1 89 53 be 4e e8 89 be fd c2 11 c0
       -0.71155846 -0.20658089 -0.26935047 -2.2775261
000080 cf 53 a4 be 89 f7 85 3e 8a d9 8b be ff 49 1a c0
       -0.3209519 0.26165417 -0.27314407 -2.4107664
000090 9f cd d6 bf 2a c3 0a 3e 43 a2 e2 bf c4 94 54 be
       -1.67815 0.13551012 -1.7705768 -0.20759875
