Implementation/Simulation/models/model1.tflite (tflite, 1940 bytes, 4 tensors)

dense_1/bias f4 [5]
-0.55056345 -5.863812 4.0720267 -0.98147285 -0.97465986
00000000: baf1 0cbf 59a4 bbc0 0b4e 8240 ce41 7bbf
00000010: 4f83 79bf

dense/bias f4 [8]
2.2905898 0.97372705 -0.055786017 -4.334417 -1.7219622 -1.1158462 3.6895723 6.90287
00000000: 0699 1240 2d46 793f e17f 64bd 8bb3 8ac0
00000010: 4269 dcbf 0cd4 8ebf f421 6c40 50e4 dc40

std.constant f4 [8, 11]
0.0063778176 0.039512936 0.27874017 0.20426242 -10.1691675 0.20947309 -0.12185637 0.048957385
0.790501 -0.014027126 0.8514414 -0.048392974 0.1567729 -0.14732704 0.18617527 0.19260818
0.4181599 0.18763152 0.6512076 -0.26620713 0.0049991757 0.3575049 0.18707965 0.44099495
-0.081019275 -2.7538805 -0.8884823 0.5351854 -0.30944324 -4.1467943 0.31468272 0.057549197
-0.10507287 0.4251073 -0.12871157 0.27896908 -0.42662024 -0.07805436 0.08504764 -0.3998549
0.06806328 -2.5157545 0.041488025 -2.6732175 -0.010177514 0.26194686 0.19632097 -0.044391587
-0.3822043 -0.123609185 0.012289795 -0.09938903 -1.7934066 0.10689426 0.4378844 -15.011206
-3.6985755 -5.477603 -1.9451295 -6.9290295 -0.37862244 0.2820357 -29.174688 0.4178321
0.04734673 -1.0868278 0.0009697638 -0.026505481 0.102632605 0.036159307 0.18415476 0.005009404
-0.021707907 0.014624629 2.673676 -0.097978495 4.5246053 -0.060314696 0.13622414 -0.06440615
-0.1230455 -0.19498035 -0.1572282 -0.23711908 0.01943076 6.140944 0.017072957 4.449965
00000000: 03fd d03b 51d8 213d 08b7 8e3e 2b2a 513e
00000010: e9b4 22c1 1d80 563e d58f f9bd 8a87 483d
00000020: 465e 4a3f 08d2 65bc 10f8 593f b637 46bd
00000030: 1389 203e e6dc 16be bba4 3e3e 143b 453e
00000040: 0e19 d63e 7a22 403e 8bb5 263f 4d4c 88be
00000050: 20d0 a33b e20a b73e cf91 3f3e 17ca e13e
00000060: 6fed a5bd 943f 30c0 9373 63bf e901 093f
00000070: 586f 9ebe 8ab2 84c0 181e a13e b5b8 6b3d
00000080: 7230 d7bd aaa7 d93e f7cc 03be 09d5 8e3e
00000090: f86d dabe f7da 9fbd 752d ae3d c8b9 ccbe
000000a0: c364 8b3d 1f02 21c0 59ef 293d ff15 2bc0
000000b0: 96bf 26bc e61d 863e 5d08 493e f4d3 35bd
000000c0: 48b0 c3be d026 fdbd 235b 493c 7a8c cbbd
000000d0: 598e e5bf 61eb da3d 6232 e03e e62d 70c1
000000e0: 76b5 6cc0 8648 afc0 01fa f8bf 9cba ddc0
000000f0: cdda c1be fc66 903e c365 e9c1 17ee d53e
00000100: a5ee 413d 2c1d 8bbf bf37 7e3a 0622 d9bc
00000110: 0b31 d23d c81b 143d 1193 3c3e ed25 a43b
00000120: c8d4 b1bc 249c 6f3c 821d 2b40 f3a8 c8bd
00000130: 91c9 9040 8b0c 77bd 577e 0b3e 5fe7 83bd
00000140: 47ff fbbd eea8 47be 6e00 21be 58cf 72be
00000150: 422d 9f3c 9d82 c440 96dc 8b3c 1d66 8e40

std.constant1 f4 [5, 8]
1.2747316 -1.5346963 -0.3119698 -1.9315153 -1.7407757 -0.44698068 -0.0013374219 -0.5091313
-0.19667886 0.32929766 -0.037912868 -0.37483698 -0.52956367 -9.71772 -0.6901406 -0.24715099
-0.11474856 0.29712436 -0.00013660979 -0.42089272 -0.60127026 -0.68248475 -0.89473945 -0.090819776
-0.38689417 -0.1145981 -0.82792693 -0.60789466 -0.61673266 -0.28640345 -1.0970839 -0.56635535
-1.7120103 -0.7171542 -1.7837033 -0.67108184 -0.2751812 0.67212987 -2.8523207 -0.07468842
00000000: 682a a33f ee70 c4bf 81ba 9fbe e53b f7bf
00000010: bdd1 debf a7da e4be 6f4c afba 6e56 02bf
00000020: 2f66 49be b499 a83e 864a 1bbd a2ea bfbe
00000030: 7c91 07bf c87b 1bc1 0ead 30bf 2615 7dbe
00000040: 4b01 ebbd af20 983e e93e 0fb9 407f d7be
00000050: d9ec 19bf 52b7 2ebf a50d 65bf b8ff b9bd
00000060: fe16 c6be 69b2 eabd 05f3 53bf fc9e 1bbf
00000070: 31e2 1dbf 79a3 92be 3f6d 8cbf aafc 10bf
00000080: 2723 dbbf 6b97 37bf 6450 e4bf 05cc 2bbf
00000090: 8de4 8cbe b410 2c3f 6c8c 36c0 3ef6 98bd
