Implementation/Simulation/models/model3.tflite (tflite, 1948 bytes, 4 tensors)

dense_5/bias f4 [5]
0	0x4135474d	11.329907
1	0xc0865dda	-4.1989565
2	0x3fa1b735	1.2634035
3	0xc0b830fe	-5.7559805
4	0xbe9e81d3	-0.30958423

dense_4/bias f4 [8]
0	0x3f72938d	0.94756395
1	0xc0473c67	-3.1130617
2	0xbeb4aaa2	-0.35286433
3	0xc0410f64	-3.0165644
4	0x3f8939ca	1.0720761
5	0x3fd754f5	1.6822802
6	0x3e399b62	0.1812568
7	0x3e3fe82e	0.18740913

std.constant f4 [8, 11]
0	0xbd907622	-0.07053782
1	0x3ea8c8fe	0.32965845
2	0xbe924b50	-0.28573084
3	0xbec43b1a	-0.3832634
4	0xbe56211a	-0.20911065
5	0x3dc1d3c5	0.0946422
6	0xbf237a17	-0.6385817
7	0x3dafcdb3	0.08584156
8	0xbea28534	-0.3174225
9	0x3db6ec2d	0.08931766
10	0xbf185ffe	-0.5952147
11	0xbe049272	-0.1294649
12	0x3e08091b	0.13284723
13	0x3e2e1620	0.17000628
14	0x3ddc26d8	0.10749596
15	0x3f1fafeb	0.62377805
16	0x3daeb577	0.085307054
17	0x3e5220de	0.2052035
18	0x3ea52e69	0.3226197
19	0xc0dc12c5	-6.877291
20	0xbd3268ab	-0.04355685
21	0xbff9c179	-1.9512168
22	0xbf15b93c	-0.5848577
23	0x3f05c239	0.52249485
24	0xbe002ff3	-0.12518291
25	0xbfd0e760	-1.632061
26	0xbfa5409c	-1.2910342
27	0xc1079cff	-8.475829
28	0xbec4f930	-0.38471365
29	0xc1e4ede7	-28.616163
30	0x3fc68571	1.5509473
31	0x3eb5f576	0.35538834
32	0xbd53ebae	-0.051738434
33	0xbe1cb818	-0.15304601
34	0xbdd05659	-0.101727195
35	0xbed98dd9	-0.42491034
36	0xbec8008e	-0.39062923
37	0xbf22c6ea	-0.6358477
38	0xbd9f9aef	-0.07793223
39	0xbd2404cf	-0.04004365
40	0x3d807178	0.062716424
41	0xbfbc5c6b	-1.4715704
42	0x3ea3b5a1	0.3197451
43	0xbffab099	-1.9585143
44	0xbd7c3841	-0.061577085
45	0xbe642c06	-0.22282419
46	0xbdfecc48	-0.12441307
47	0xbddd6f3f	-0.10812234
48	0xbe5522e4	-0.20814091
49	0x3eab1bb6	0.3341958
50	0x3e2b57c0	0.16732693
51	0xbe3f1af5	-0.18662627
52	0xbf432bfa	-0.7623898
53	0x3dc7c3da	0.097541526
54	0x3e73f3aa	0.23823419
55	0xbf98514c	-1.189981
56	0xbd853907	-0.06505018
57	0xbccd3af6	-0.025052529
58	0x3dc46567	0.095896535
59	0xbfb1aff9	-1.3881828
60	0xbcc4a890	-0.024006158
61	0x3db36d1c	0.08761045
62	0x3e68f17d	0.2274837
63	0x40da390a	6.819463
64	0x3d2d9e5a	0.042387344
65	0x3fdecd60	1.7406425
66	0xbf01a217	-0.50637954
67	0xbca87f99	-0.020568656
68	0xbf3bb05c	-0.7331598
69	0xc08e4d67	-4.4469485
70	0xbe068b4b	-0.13139074
71	0xbd447525	-0.04796328
72	0x3f1f3f27	0.6220574
73	0x3e53a127	0.20666943
74	0x3fd08a27	1.6292161
75	0x3dc17a53	0.094471596
76	0x3f05d010	0.52270603
77	0xbc89f04f	-0.01683822
78	0xbe36a399	-0.17835845
79	0xbe2a4c9f	-0.16630791
80	0x3ee68254	0.45021307
81	0x3f1ad95b	0.6048791
82	0xbf22c354	-0.635793
83	0xbf04df5a	-0.5190331
84	0x3e5f4ae7	0.21805917
85	0xc019c524	-2.4026575
86	0x3ccef079	0.02526115
87	0xbf640dda	-0.89083636

std.constant1 f4 [5, 8]
0	0xbf4ef209	-0.80838066
1	0xc0678971	-3.6177638
2	0xbf0dab52	-0.5533954
3	0xbfce1d66	-1.6102722
4	0x3f1a7c5f	0.60346025
5	0xbeaff56a	-0.34366924
6	0x3f947389	1.1597759
7	0xc0b2cbb5	-5.5873666
8	0x3f012903	0.50453204
9	0xbed86f97	-0.42272636
10	0xbf0bc645	-0.5459941
11	0xbdb5c224	-0.0887492
12	0x3e81ef66	0.2537796
13	0xbf206e28	-0.62668085
14	0xbe884868	-0.26617742
15	0x3e50f73b	0.20406811
16	0x3f1ccaf7	0.612472
17	0xbf050538	-0.5196109
18	0xbed5b490	-0.4173932
19	0xbe35a44f	-0.1773846
20	0x3e970199	0.29493406
21	0xbee30cea	-0.4434579
22	0xbdee150c	-0.11625108
23	0x3e908951	0.28229764
24	0xbdda93b2	-0.10672702
25	0xbfbd4b0b	-1.4788526
26	0xbd2b469b	-0.04181538
27	0xbeb40196	-0.3515746
28	0xbf320928	-0.6954522
29	0xbf6a74be	-0.91584384
30	0x3e454e67	0.1926819
31	0xbfd29be7	-1.6453828
32	0xbfd4bd03	-1.6620182
33	0xbf2bad94	-0.67061734
34	0x3ed756ab	0.4205831
35	0xbcb76617	-0.022387547
36	0xbf86a9ad	-1.0520531
37	0xbebb92bd	-0.3663539
38	0x3ecebec8	0.4037993
39	0xbe838555	-0.25687662
